app/src/main/assets/final_nn_model.tflite (tflite, 123776 bytes, 8 tensors)

sequential/dense_3/BiasAdd/ReadVariableOp/resource f4 [2]
0	0xbb164b28	-0.002293298
1	0x3b164748	0.002293067

sequential/dense_2/BiasAdd/ReadVariableOp/resource f4 [100]
0	0xbb75f572	-0.003753033
1	0xbb23f85a	-0.0025019855
2	0xbb7a1a12	-0.0038162512
3	0x3bbe188a	0.005801265
4	0xba49b2b1	-0.00076941686
5	0xbbdc2f59	-0.0067195115
6	0x3b7dffe1	0.0038757252
7	0x3b101835	0.0021987085
8	0x38c6e68c	9.4843184e-05
9	0x3b2477cd	0.002509582
10	0x3b971772	0.004610949
11	0xbaa4db8c	-0.0012577637
12	0xbad0ff37	-0.00159452
13	0xbab45281	-0.0013757498
14	0xbb6e4f9d	-0.0036363371
15	0x3b14e973	0.0022722154
16	0xba80cb0a	-0.0009826135
17	0xbb4a3463	-0.0030853979
18	0x3b7a4915	0.0038190533
19	0x31516579	3.0471183e-09
20	0xbb8f4672	-0.0043724114
21	0x00000000	0.0
22	0xbc44bba2	-0.012007626
23	0xbb2e0aec	-0.0026556803
24	0x3b1fe0a4	0.002439537
25	0xbb87f4be	-0.0041490486
26	0xba85a6d4	-0.0010196813
27	0x3b2260ca	0.002477693
28	0x3b0e6a80	0.002173096
29	0x3b22b404	0.0024826536
30	0x3b10d058	0.0022096839
31	0x3b21ae72	0.0024670628
32	0x3acf1731	0.0015799758
33	0xbb911af7	-0.0044282633
34	0xbad24d2e	-0.001604473
35	0xbb208fb5	-0.0024499719
36	0xbb316df5	-0.0027073596
37	0x3bc7bb28	0.006095309
38	0x00000000	0.0
39	0x3c1cd80f	0.009572997
40	0x3bc60a2c	0.006043693
41	0xbbacc145	-0.005272063
42	0x38c226bf	9.257858e-05
43	0xbb1f337d	-0.0024292164
44	0xbab472fe	-0.001376718
45	0xbbb336f0	-0.0054691955
46	0x3b128c00	0.0022361279
47	0x3a4de25e	0.0007853861
48	0xba9036d8	-0.0011002673
49	0xb92ae3f5	-0.00016297384
50	0x3acd038e	0.0015641318
51	0xbc3e31b3	-0.011608529
52	0xbb7276a5	-0.0036996987
53	0xbb68ab3b	-0.0035502452
54	0xbb1a6620	-0.0023559406
55	0xbbf77d7e	-0.0075528016
56	0xbbdf9d05	-0.006824138
57	0x3a45fa41	0.00075522444
58	0x3be30804	0.006928446
59	0xbb9f13bb	-0.004854647
60	0xb9336f81	-0.00017112309
61	0xbb84dc5a	-0.0040545883
62	0xbc115cab	-0.008872191
63	0x3aee8d8e	0.0018200146
64	0xbab9ac81	-0.001416579
65	0x00000000	0.0
66	0xbb225a5f	-0.0024773104
67	0xbbc421a4	-0.0059854556
68	0xbb831e93	-0.0040014475
69	0x3b2489cf	0.0025106554
70	0xbb1426c5	-0.0022606116
71	0x3ad3a910	0.0016148407
72	0xbacdfc47	-0.0015715443
73	0xbb2e4148	-0.0026589204
74	0x3b123c5f	0.0022313816
75	0xbb5a9bca	-0.0033357018
76	0xbae0f24e	-0.0017162056
77	0x3b038df4	0.0020073624
78	0xbb00310d	-0.0019560487
79	0x3bc7ca73	0.006097132
80	0xbc05b5d1	-0.008161024
81	0xbaacf945	-0.0013196847
82	0x3b767649	0.0037607125
83	0xb996e6df	-0.00028782242
84	0xbb954f88	-0.0045566
85	0xbbf1061e	-0.0073554656
86	0xbb487d7e	-0.0030592377
87	0xbba9f6ec	-0.005186906
88	0x3aec5d83	0.001803324
89	0xbc1b9e06	-0.009498125
90	0xb90c1cb0	-0.00013362127
91	0x3c145e4b	0.009055684
92	0xbbb4574f	-0.005503572
93	0x3b06e088	0.0020580608
94	0x3b0da344	0.0021612206
95	0x3b5bbd91	0.0033529738
96	0xbb2678df	-0.0025401635
97	0xbb2521ad	-0.0025197074
98	0xbc188b18	-0.009310506
99	0xbb83eb8e	-0.004025883

sequential/dense_1/BiasAdd/ReadVariableOp/resource f4 [100]
0	0xba2f6d4d	-0.00066920073
1	0xbb313c7d	-0.002704411
2	0x265cec02	7.6647683e-16
3	0x3a05394b	0.00050820847
4	0xbbd2bf34	-0.0064314846
5	0xbc095727	-0.008382595
6	0xbb47c700	-0.0030483603
7	0xb9e1cb48	-0.000430668
8	0xbc152a4f	-0.009104325
9	0x3b8ff7fa	0.004393575
10	0x3aa34fd9	0.001245971
11	0xbc61493b	-0.01375037
12	0x3bf82bda	0.007573587
13	0x00000000	0.0
14	0x3b08809f	0.0020828617
15	0x3a8a0149	0.0010528947
16	0xba3de536	-0.0007243933
17	0xbb692d30	-0.0035579912
18	0xbc13ddaa	-0.009025017
19	0xbb8e8d29	-0.0043503237
20	0xbb6b6611	-0.003591899
21	0x3b30970b	0.0026945497
22	0xbbde8cb2	-0.0067916745
23	0xbc2e880d	-0.010652554
24	0xbbcb65fb	-0.0062072254
25	0xbbfafa14	-0.007659206
26	0xba727cd8	-0.00092501706
27	0x3b0380e8	0.0020065848
28	0xbb0d22a9	-0.0021535552
29	0xbc11cfc1	-0.00889963
30	0x3baea542	0.005329759
31	0xbac56af8	-0.0015061786
32	0xb8702187	-5.7251684e-05
33	0xbb641ce7	-0.0034807266
34	0xb54f7f7d	-7.729903e-07
35	0x3b9b818b	0.0047456673
36	0x3b240cf8	0.0025032144
37	0x3baa5ced	0.005199066
38	0x3b91838a	0.0044407295
39	0xbb5f3576	-0.0034058965
40	0x00000000	0.0
41	0xbc1c6c6e	-0.009547336
42	0x3c0c1aa3	0.008551273
43	0xbafb2528	-0.0019160854
44	0xbbb854fa	-0.0056253644
45	0x3bc01426	0.005861777
46	0xbb970f39	-0.004609969
47	0xbc2dfe47	-0.0106197065
48	0x3add83d4	0.001690025
49	0x3b99a0de	0.0046883663
50	0xbb56beb3	-0.0032767474
51	0xbc081967	-0.008306838
52	0x3b08559b	0.0020802978
53	0xba5d9efd	-0.0008454172
54	0x3bad361a	0.0052859904
55	0xbc3a7bb7	-0.011382035
56	0x3ba4382b	0.0050115786
57	0xbc00349a	-0.007825041
58	0x3c62ebea	0.013850192
59	0xbbc8a206	-0.0061228303
60	0x3be2624c	0.0069086906
61	0x3a019210	0.00049427245
62	0xb978008b	-0.00023651325
63	0x3c1a3ac4	0.009413425
64	0xbab0b2be	-0.0013481004
65	0x3bb150e6	0.005411255
66	0xbbbbcac4	-0.0057309587
67	0xbb003c3f	-0.001956716
68	0x3bdc21f5	0.006717915
69	0xbb2f0d38	-0.002671076
70	0x3af99a01	0.0019043089
71	0xbb188659	-0.0023273437
72	0xbb35ad32	-0.002772164
73	0x3b6318cd	0.0034652234
74	0x3bd64657	0.006539147
75	0x3c411b88	0.011786349
76	0xbbb56488	-0.005535666
77	0xbbfe5d9d	-0.0077626244
78	0xbc1d9174	-0.009617198
79	0xbbe71655	-0.0070522227
80	0x39d20464	0.00040057593
81	0xbc0188a4	-0.007906113
82	0xbba18e26	-0.0049302755
83	0xbc37e8e0	-0.011224955
84	0xbb5773c0	-0.003287539
85	0xbc0274c0	-0.007962406
86	0xbbc710c1	-0.0060749953
87	0xbb8df9c6	-0.004332754
88	0xbb214b35	-0.0024611477
89	0x3ad6a41f	0.0016375816
90	0xbb96ae78	-0.004598435
91	0x3be66c95	0.007031987
92	0x3c3357e6	0.01094625
93	0x3a52264f	0.00080165727
94	0x3b40f00f	0.002943996
95	0xbb5c231b	-0.003359026
96	0xbb42ba1d	-0.0029712983
97	0xbbee649e	-0.007275178
98	0xbaab90a1	-0.0013089367
99	0x3ac4e67a	0.0015022301

sequential/dense/BiasAdd/ReadVariableOp/resource f4 [100]
0	0xbbb94ec4	-0.0056551415
1	0xbb8d7c82	-0.004317821
2	0x3a0f6e43	0.00054714474
3	0x3c001fc1	0.007820071
4	0x3bc29384	0.0059379954
5	0xbbf87ae2	-0.007583008
6	0xbbc93c7c	-0.0061412435
7	0xbc335317	-0.010945103
8	0xbb2915a4	-0.0025800252
9	0x3b99836f	0.0046848576
10	0x3b0f1f72	0.0021838811
11	0xbc82665f	-0.015917955
12	0xbbb86ba5	-0.0056280666
13	0xbc1be92e	-0.009516044
14	0x3ae7c656	0.001768301
15	0xbbae3b57	-0.0053171325
16	0x3b0cc56d	0.002147998
17	0x3b1af1c2	0.0023642634
18	0x3a1e56bb	0.00060401455
19	0xbbeb7c7c	-0.0071864706
20	0x3c074ee7	0.008258558
21	0x3c25ead4	0.010126788
22	0x3c380bcf	0.011233284
23	0xbb5c86a0	-0.0033649579
24	0x3b022a5a	0.001986167
25	0x3bb827b4	0.0056199674
26	0x3bcaa469	0.00618415
27	0xbba2d39a	-0.0049690725
28	0x3bb3c9f7	0.0054867226
29	0xbbb7959a	-0.0056025507
30	0x3bf89b22	0.0075868526
31	0xbc2f58f8	-0.010702364
32	0xbc133f02	-0.00898719
33	0xbc0aef18	-0.008479856
34	0xbae5ef84	-0.0017542695
35	0x3be0d973	0.0068618595
36	0xbbbbfece	-0.005737162
37	0x39fe15eb	0.00048462985
38	0xbbf75079	-0.007547435
39	0x3a1d6f94	0.0006005701
40	0x3ad623f6	0.0016337621
41	0xbb4c4fe0	-0.003117554
42	0xbbb47401	-0.005506993
43	0x3a9ded96	0.0012048956
44	0xbb9904d4	-0.004669765
45	0xbbc35fbf	-0.0059623416
46	0xb721a1e1	-9.634038e-06
47	0xbb60ab45	-0.0034281772
48	0xbb2e233d	-0.0026571297
49	0x3be89547	0.0070978734
50	0xbc16c97f	-0.009203314
51	0xbbbba37b	-0.0057262755
52	0x3b51caab	0.0032011669
53	0xbaeba992	-0.0017979613
54	0xb92cc8b8	-0.00016477972
55	0xbc1fb37e	-0.009747384
56	0xbc27e512	-0.010247486
57	0xbae09ca0	-0.0017136522
58	0xbc443832	-0.011976289
59	0xbb853600	-0.004065275
60	0xbba7d825	-0.005122202
61	0xba40f2b6	-0.00073603855
62	0xbc15c7de	-0.00914189
63	0x00000000	0.0
64	0x3b0b2c8f	0.0021236276
65	0xbbcdf752	-0.0062855864
66	0x3a928635	0.0011178913
67	0xbbc3665f	-0.0059631313
68	0xb9e4f497	-0.00043669782
69	0xbb152f28	-0.0022763703
70	0x3aeee3ee	0.0018225887
71	0x3aa7690f	0.0012772399
72	0x3aa84e59	0.0012840732
73	0x3afa75f3	0.0019108638
74	0xbc0d1683	-0.008611324
75	0xb75a3c16	-1.3007802e-05
76	0x3bac04f9	0.005249616
77	0x3b18cc2f	0.0023315062
78	0xbb6a2a29	-0.0035730696
79	0x3b963386	0.004583779
80	0xbae3c8d1	-0.0017378574
81	0xbb458371	-0.003013816
82	0xbc18cfe8	-0.009326912
83	0x3c2effbf	0.010681092
84	0x3be78507	0.0070654186
85	0xbc44a1bb	-0.01200145
86	0x3c633ab8	0.01386898
87	0x00000000	0.0
88	0x39d61a10	0.0004083668
89	0x3925c04f	0.00015807267
90	0xbaadcc46	-0.0013259731
91	0xbb94b8e5	-0.0045386427
92	0x3c4460b2	0.011985945
93	0xbb888bce	-0.0041670566
94	0xbbc33973	-0.005957776
95	0x3c0d0d57	0.0086091375
96	0xba0b93e0	-0.00053244643
97	0x3c194128	0.009353913
98	0xbb542bdd	-0.0032374777
99	0xbb7663d5	-0.0037596126

sequential/dense/MatMul f4 [100, 99]
0	0x3df15cd3	0.11785283
1	0xbdb7130c	-0.0893918
2	0x3e242381	0.16029169
3	0x3d44014a	0.04785279
4	0xbd97e19d	-0.07416079
5	0x3d792d53	0.06083424
6	0x3e3577dc	0.17721504
7	0x3da11ea4	0.07867172
8	0xbd663093	-0.056198668
9	0x3dc10641	0.09425021
10	0xbe013851	-0.12619139
11	0xbdf9a937	-0.12190478
12	0x3d9a24ef	0.07526576
13	0xbdd3e499	-0.10346336
14	0x3d858901	0.06520272
15	0xbda3bc59	-0.07994909
16	0x3d6b0fe8	0.057388216
17	0xbd802927	-0.06257849
18	0x3e186b85	0.14884765
19	0xbd365191	-0.04451138
20	0x3d968690	0.073498845
21	0x3dcbf330	0.09958494
22	0x3d60832f	0.054812606
23	0xbdfaebde	-0.12252019
24	0xbdd54d7f	-0.10415172
25	0x3e1ceb63	0.15324168
26	0xbd6dc8ac	-0.058052704
27	0x3d99d404	0.07511142
28	0xbd32bfa4	-0.043639794
29	0x3e11f507	0.14253627
30	0xbda3c5d9	-0.07996721
31	0x3defe384	0.11713317
32	0x3e0a94cb	0.13533323
33	0x3e2dc0ab	0.16968028
34	0xbde7ad88	-0.11312395
35	0x3d9c132d	0.07620845
36	0x3dbd89ef	0.09254824
37	0x3e001f02	0.12511829
38	0xbd5b5092	-0.053543635
39	0x3df64f8a	0.120268896
40	0xbdc9d742	-0.0985551
41	0x3e306e2b	0.17229526
42	0x3e27e71b	0.16396753
43	0x3e073507	0.13203822
44	0x3deeefd4	0.11666837
45	0x3c616e65	0.01375923
46	0xbe2b1f6b	-0.16711204
47	0x3b2d8dfa	0.002648233
48	0x3cb9a9f4	0.022664048
49	0xbb881738	-0.0041531585
50	0x3d925843	0.07145741
51	0x3e0e7d17	0.13914905
52	0xbc9a36df	-0.018824993
53	0xbe1ed886	-0.15512285
54	0xbd9a1fbc	-0.07525584
55	0x3da5e35b	0.08100005
56	0x3dc16c85	0.094445266
57	0x3dec858c	0.115489095
58	0xbdfac02e	-0.122436866
59	0x3d9dd664	0.077069074
60	0xbe0ea43e	-0.13929841
61	0x3dddd97a	0.10832496
62	0xbd2fc94b	-0.042916577
63	0x3bd3ab9d	0.006459667
64	0x3d309fd4	0.043121174
65	0xbdac938a	-0.08426578
66	0xbd4889e3	-0.048959624
67	0x3d283b8d	0.041072417
68	0x3e143267	0.14472352
69	0x3e2aa3bb	0.1666402
70	0xbd654a94	-0.055979326
71	0x3dd3d8fe	0.10344122
72	0xbe2883c1	-0.1645651
73	0xbcedff27	-0.02905233
74	0xbd890650	-0.06690657
75	0xbdb6c175	-0.08923618
76	0xbe31441f	-0.17311142
77	0xbe0dbb33	-0.13840942
78	0x3c5b9cbe	0.0134040695
79	0x3e0d4666	0.13796386
80	0xbe1f53ab	-0.1555926
81	0xbe014c04	-0.12626654
82	0x3e2455f8	0.1604842
83	0x3dd1e671	0.10249031
84	0xbe1d1333	-0.15339355
85	0xbd8542ea	-0.065069035
86	0x3d500452	0.05078537
87	0xbd44abd7	-0.04801544
88	0xbdd4ed90	-0.10396874
89	0xbdb21326	-0.086950585
90	0xbd8d5d3f	-0.06902551
91	0x3cb3fc4c	0.02197089
92	0x3e0c38da	0.13693562
93	0xbe1eb014	-0.15496856
94	0x3dfec53c	0.12439963
95	0xbdb03b63	-0.08605077
96	0x3cfb112f	0.030647842
97	0x3da6c444	0.081429034
98	0xbe18da36	-0.14926991
99	0xbcca1a05	-0.02467061
100	0xbbd9cf0d	-0.006646997
101	0xbd125035	-0.035721023
102	0xbd5db633	-0.054128837
103	0x3bf1ea03	0.0073826327
104	0x3d91e2ef	0.07123362
105	0x3b1a2964	0.0023523206
106	0x3e2e1123	0.16998725
107	0x3d2b6e1b	0.04185305
108	0xbc9eaf75	-0.019370774
109	0x3d360869	0.044441614
110	0x3d9035d4	0.07041517
111	0x3e1f0ab8	0.15531433
112	0x3d6603fc	0.056156144
113	0xbd326861	-0.043556575
114	0x3de7a379	0.11310477
115	0xbd14bfc9	-0.036315713
116	0xbe2dbcdf	-0.1696658
117	0xbdb13fc0	-0.086547375
118	0x3b4963de	0.0030729691
119	0xbe23294d	-0.15933724
120	0xbc5ca514	-0.013467092
121	0xbdf0ec7c	-0.11763856
122	0xbdde64d0	-0.10859072
123	0xbe1e8e49	-0.15483965
124	0xbc8fa578	-0.017534956
125	0x3c9875fd	0.018610949
126	0x3d5712d7	0.0525082
127	0xbcf00784	-0.029300459
128	0x3cfed857	0.031109018
129	0xbdf4b475	-0.11948482
130	0x3e22b92d	0.15890951
131	0x3d872d66	0.06600456
132	0xbd89432e	-0.06702267
133	0xbe0928e0	-0.13394499
134	0x3cda16c2	0.02662218
135	0xbcc417d6	-0.023937147
136	0xbde0bcac	-0.10973486
137	0xbbdaaa7f	-0.0066731567
138	0xbe24d2e5	-0.16096075
139	0x3dc14784	0.09437469
140	0xbd5ed060	-0.05439794
141	0xbe07db62	-0.13267282
142	0xbdafa81a	-0.08576985
143	0x3e35e98b	0.17764871
144	0xbcbec9b9	-0.023289548
145	0x3de944e5	0.11390094
146	0xbce651a0	-0.028115094
147	0x3d0a0204	0.03369333
148	0xbd0e21f8	-0.034700364
149	0x3d47d5f1	0.048788015
150	0xbdc72116	-0.097231075
151	0xbd5566b1	-0.052099887
152	0x3cbe5eea	0.023238618
153	0xbe127908	-0.14303982
154	0xbd713e26	-0.05889716
155	0xbe042d36	-0.12907872
156	0x3ddcb099	0.10775871
157	0x3e11691b	0.14200251
158	0xbe143bea	-0.1447598
159	0x3e0075f7	0.12545
160	0xbc81d131	-0.01584682
161	0xbe232fd7	-0.15936218
162	0xbdf59f3d	-0.11993263
163	0xbc33b2f4	-0.010967959
164	0xbe2aff39	-0.16698922
165	0xbdd16771	-0.10224808
166	0xbd0aba58	-0.033869117
167	0xbd2e0c65	-0.04249229
168	0xbdcc854f	-0.09986364
169	0x3d1ec203	0.038759243
170	0xbca8f03d	-0.020622367
171	0x3cce8122	0.02520806
172	0xbe316744	-0.17324549
173	0x3d0a1ddd	0.033719886
174	0x3cff453e	0.031160947
175	0xbb1be3a2	-0.0023786803
176	0x3e391bf9	0.18077077
177	0x3deffe3e	0.11718415
178	0x3d0e0dc8	0.03468111
179	0xbd88b0f8	-0.06674379
180	0x3d1eeb74	0.038798764
181	0x3e080e87	0.13286792
182	0xbe2f8b6d	-0.1714303
183	0x3e23fffc	0.16015619
184	0x3e27ec8d	0.1639883
185	0xbde812f9	-0.11331744
186	0xbdcd996d	-0.10039029
187	0x3e039150	0.12848401
188	0x3e04157b	0.12898819
189	0xbdbef754	-0.09324518
190	0xbd484565	-0.048894305
191	0xbd51ef4b	-0.0512536
192	0xbdfb9343	-0.12283947
193	0x3c85037c	0.016237013
194	0x3d41ffac	0.04736297
195	0xbdb2415e	-0.08703874
196	0xbd6d05c9	-0.057866845
197	0xb97c5384	-0.00024063705
198	0x3da5eb59	0.0810153
199	0xbe06aec6	-0.13152608
200	0xbe2befd7	-0.1679071
201	0xbd82bc10	-0.06383526
202	0x3def3c7b	0.116814576
203	0x3d81318a	0.06308277
204	0x3d4dde9c	0.050261125
205	0x3d09549a	0.033527948
206	0x3da669fe	0.08125685
207	0x3e069d82	0.13146022
208	0xbd152683	-0.03641368
209	0xbe152a0c	-0.14566821
210	0xbcc4231d	-0.023942525
211	0x3dc9f32c	0.098608345
212	0xbe27d9aa	-0.16391626
213	0x3d677073	0.056503724
214	0x3e2ff7bd	0.17184348
215	0xbcbcd1d4	-0.023049273
216	0x3ddadec9	0.10687024
217	0x3de89d60	0.11358142
218	0x3cc22664	0.023699947
219	0xbcadf613	-0.021235501
220	0x3d58c2dd	0.05292021
221	0x3b7ebbeb	0.0038869332
222	0xbe01445a	-0.1262373
223	0xbc1d9544	-0.009618107
224	0x3db082ab	0.08618673
225	0x3e137269	0.14399113
226	0x3c4760ef	0.012169107
227	0xbe1cd917	-0.15317188
228	0xbcf1322e	-0.029442873
229	0x3d182f90	0.037154734
230	0xbe1dd6f0	-0.15414023
231	0x3e38bc91	0.18040682
232	0x3d8d7035	0.069061674
233	0xbde7285e	-0.11286996
234	0xbe0693bd	-0.13142295
235	0xbd59921c	-0.053117856
236	0x3d21fb99	0.039546583
237	0xbd5327b4	-0.051551536
238	0xbdda77dc	-0.106673926
239	0x3de294ae	0.11063515
240	0x3e25bf6c	0.16186303
241	0x3d548b29	0.051890526
242	0x3dc700dc	0.09716961
243	0x3e0dfd3a	0.1386613
244	0x3d9d77f7	0.07688897
245	0x3aec5378	0.0018030247
246	0x3de94f40	0.11392069
247	0xbe05f476	-0.13081536
248	0x3da2df1d	0.07952712
249	0x3e01b010	0.12664819
250	0x3e0e8b47	0.13920318
251	0xbdb2ecee	-0.08736597
252	0x3d528887	0.051399734
253	0x3e1de9c6	0.15421209
254	0xbddbdcb1	-0.10735453
255	0x3d0b800a	0.034057654

sequential/dense_1/MatMul f4 [100, 100]
0	0xbe00b866	-0.12570342
1	0xbdfcbd22	-0.12340762
2	0x3d56860f	0.052373942
3	0x3a90a333	0.0011034965
4	0x3dc355e5	0.095378675
5	0x3d2a98ef	0.041649755
6	0xbd92cadb	-0.07167598
7	0x3e271105	0.16315086
8	0xbe129e5a	-0.14318219
9	0xbdabe5e8	-0.083934605
10	0xbde9c15e	-0.11413835
11	0x3e120833	0.1426094
12	0xbd6431a7	-0.055711415
13	0xbd7f5c51	-0.0623439
14	0x3d5f924d	0.054582883
15	0x3e091437	0.13386618
16	0x3e049755	0.12948354
17	0x3d3e8602	0.04651452
18	0x3c2ae5d1	0.010430769
19	0x3e13147e	0.14363286
20	0xbdcc957b	-0.09989449
21	0x3e0af65e	0.13570544
22	0x3e37dae5	0.17954595
23	0xb944844c	-0.00018741301
24	0x3e2fb85d	0.17160173
25	0x3e274e37	0.1633843
26	0xbd0d8202	-0.034547813
27	0x3d95750a	0.07297714
28	0xbdb1d95e	-0.086840376
29	0xbda2fb2d	-0.07958064
30	0xbdd5c1b3	-0.10437336
31	0xbddff928	-0.10936195
32	0x3d307bb8	0.043086737
33	0x3c4b5898	0.012411259
34	0xbda8629a	-0.08221932
35	0xbe2c98f7	-0.16855226
36	0xbc869afa	-0.01643132
37	0xbd534ba8	-0.051585823
38	0x3e1db4f4	0.1540106
39	0xbdea563c	-0.11442229
40	0x3da6be66	0.08141784
41	0x3dd57cea	0.10424216
42	0xbe2cfb00	-0.16892624
43	0xbdbad26b	-0.09122165
44	0x3dc61122	0.096712366
45	0xbd0f68db	-0.035012107
46	0x3da56f14	0.08077827
47	0xbd059cd8	-0.03262028
48	0x3d06d17d	0.032914627
49	0x3d8eb3ae	0.06967865
50	0x3e2acbce	0.16679308
51	0x3d965b26	0.07341604
52	0x3cadfadf	0.021237789
53	0xbe174e85	-0.14776047
54	0x3d6d2946	0.05790069
55	0xbe1654e6	-0.14680824
56	0x3c8097d7	0.015697403
57	0xbd50fc34	-0.05102177
58	0xbcece3ec	-0.028917275
59	0xbc06f3ab	-0.008236806
60	0xbdf98482	-0.12183477
61	0x3da11803	0.07865908
62	0x3e08c3b4	0.13355905
63	0xbe21defd	-0.1580772
64	0xbc7b71b4	-0.015346933
65	0x3d6eed00	0.05833149
66	0x3cf98a21	0.030461373
67	0x3e21047d	0.15724368
68	0x3d5be79c	0.053687677
69	0xbe0cf5e5	-0.13765676
70	0x3de0cf43	0.10977032
71	0x3d452179	0.048127625
72	0xbd634566	-0.055486105
73	0x3d00a0fc	0.031403527
74	0xbd84fb3c	-0.06493232
75	0x3e14806d	0.14502116
76	0xbe3a123c	-0.18171018
77	0xbe0c0613	-0.13674192
78	0x3d574455	0.0525554
79	0x3d80a7ed	0.06282029
80	0x3e17935b	0.14802305
81	0x3d520b04	0.051280037
82	0x3dfa3e56	0.12218921
83	0x3d03d85d	0.032188762
84	0x3e1c32bc	0.15253729
85	0x3dd2ba06	0.102893874
86	0x3cc5a839	0.024128066
87	0x3de3e250	0.1112715
88	0x3dad6157	0.08465832
89	0xbd94ed8a	-0.072718695
90	0xbd0a2475	-0.033726174
91	0x3e2a604b	0.16638295
92	0x3dd4b4b4	0.10386029
93	0x3db07302	0.08615686
94	0xbe119633	-0.14217453
95	0x3e33c62f	0.1755607
96	0xbe02eedb	-0.12786429
97	0x3d99a254	0.07501665
98	0xbdd1adf7	-0.10238259
99	0xbc22e498	-0.009942196
100	0xbd9dd90e	-0.077074155
101	0xbd7ea1ca	-0.062166013
102	0x3c9f7914	0.019466914
103	0x3dee1bc7	0.11626392
104	0x3c3626ba	0.011117632
105	0x3e0f54c3	0.13997178
106	0xbe19fe4c	-0.15038413
107	0x3e0f3720	0.13985872
108	0x3df9fcd6	0.12206428
109	0xbda6d9dc	-0.08147022
110	0xbd980227	-0.074222855
111	0xbd879960	-0.06621051
112	0xbe1bbdea	-0.15209165
113	0xbdcf3701	-0.10117913
114	0x3b8e62bb	0.0043452657
115	0x3da8af7f	0.08236598
116	0x3db43ee9	0.08801062
117	0xbdcf9b91	-0.10137094
118	0xbd4b82fe	-0.04968547
119	0x3de75936	0.112963125
120	0x3d203ef5	0.03912254
121	0x3ca8c880	0.020603418
122	0xbe03bca5	-0.12864931
123	0x3e18533e	0.14875504
124	0xbcbe0c28	-0.023199156
125	0x3d4b0a57	0.049570408
126	0xbe141538	-0.1446122
127	0xbe184431	-0.14869763
128	0xbe273c6f	-0.16331647
129	0x3e0aca23	0.13553672
130	0x3a7f89f7	0.00097480364
131	0x3d863125	0.06552342
132	0xbe2a3067	-0.16620027
133	0xbd8409c2	-0.06447174
134	0x3e1a70e0	0.15082121
135	0x3e0b1c95	0.13585122
136	0xbc1699fd	-0.009191987
137	0xbde0571f	-0.10954117
138	0xbe143703	-0.1447411
139	0x3d93c99b	0.072161876
140	0xbd9cd141	-0.076570995
141	0xbdaf0cf7	-0.08547395
142	0x3e10a2ff	0.14124678
143	0x3d27517f	0.040849205
144	0xbdfadcac	-0.12249121
145	0x3e03c2ac	0.1286723
146	0x3df7745a	0.12082739
147	0xbe0a5ca7	-0.13511907
148	0xbd555282	-0.05208064
149	0x3d949605	0.072551765
150	0x3bc6d3cc	0.0060677286
151	0xbdf3208e	-0.11871444
152	0x3d2211a8	0.03956762
153	0x3d2352b9	0.039873812
154	0x3dc5d934	0.09660569
155	0xbe1a7966	-0.15085372
156	0x3e15b1b1	0.14618565
157	0x3decc76d	0.11561475
158	0xbdcb7223	-0.09933879
159	0x3e0247bc	0.12722677
160	0x3e02e038	0.12780845
161	0x3cc9d2da	0.024636675
162	0xbd97ec47	-0.07418113
163	0x3d5e77c8	0.05431345
164	0xbdb46af6	-0.08809464
165	0x3dcbafc8	0.09945637
166	0x3e101870	0.14071822
167	0xbbeb8ef9	-0.0071886745
168	0xbd40c2e8	-0.047060877
169	0x3d6e8d50	0.058240235
170	0xbdb6a307	-0.08917814
171	0xbd27e8cf	-0.040993508
172	0xbd57ea77	-0.052713837
173	0x3d273468	0.040821463
174	0x3db886ef	0.090101115
175	0xbc1fd8c9	-0.009756275
176	0x3df66a04	0.120319396
177	0xbe070591	-0.13185717
178	0xbcc38016	-0.023864787
179	0x3baea563	0.005329774
180	0xbdd1c319	-0.1024229
181	0xbd8c3869	-0.06846697
182	0xbe1ed358	-0.15510309
183	0x3da28970	0.079363704
184	0xbca999da	-0.020703245
185	0x3db40929	0.0879081
186	0x3d31c4d2	0.043400593
187	0xbe185528	-0.14876235
188	0x3e14f812	0.14547756
189	0xbdd314c8	-0.10306698
190	0xbd147785	-0.036246795
191	0x3d5af6db	0.053458076
192	0xbe07fa62	-0.13279107
193	0xbd423943	-0.04741789
194	0xbcafdb00	-0.021466732
195	0x3d99dcc6	0.07512812
196	0x3d62af7d	0.05534314
197	0x3c88885d	0.016666586
198	0x3dcc5b67	0.09978371
199	0xbcc3394d	-0.023831034
200	0xbe25f8d2	-0.16208199
201	0xbe2a4dc1	-0.16631223
202	0x3e1d6b42	0.15372947
203	0xbe150be3	-0.14555316
204	0x3d8ff906	0.07029919
205	0xbc80f618	-0.015742347
206	0x3dafe9b0	0.08589494
207	0x3d051f04	0.032500282
208	0x3d7cfaac	0.061762497
209	0x3dc8caf4	0.09804335
210	0xbe272096	-0.16321024
211	0xbd6f31a0	-0.058396935
212	0x3dbca454	0.092110306
213	0xbe0081ce	-0.12549517
214	0xbe0693b6	-0.13142285
215	0x3c3ec9c0	0.011644781
216	0xbe1cc1e0	-0.15308332
217	0xbe28abf3	-0.16471843
218	0x3dcb21fc	0.099185914
219	0xbe29c57f	-0.16579245
220	0xbd0a7e2c	-0.033811733
221	0x3cb91eb8	0.022597656
222	0x3d83b81c	0.064316005
223	0xbceef650	-0.029170185
224	0xbc5266f0	-0.012841925
225	0x3ce9fb98	0.028562352
226	0x3e1bd99c	0.1521973
227	0xbe185bb2	-0.14878729
228	0x3d027b98	0.03185615
229	0x3dd908c4	0.10597375
230	0x3c5f4da0	0.013629347
231	0xbe2db9a7	-0.16965352
232	0xbd3ba620	-0.045812726
233	0xbe17400a	-0.14770523
234	0x3d1c7768	0.038199812
235	0xbdd4d8b2	-0.10392894
236	0x3daae044	0.083435565
237	0xbe0ba326	-0.13636455
238	0x3df95c50	0.1217581
239	0xbbcfd6e0	-0.006342754
240	0xbe079010	-0.13238549
241	0xbe08ef74	-0.13372594
242	0xbd11a948	-0.03556183
243	0xbc035190	-0.0080150515
244	0x3c0533f0	0.008130059
245	0xbded197e	-0.11577128
246	0xbe2f4931	-0.17117764
247	0x3dc40684	0.09571555
248	0x3d1cb414	0.038257673
249	0xbdefc3a8	-0.1170724
250	0x3d60b64c	0.05486135
251	0x3e0bd784	0.13656431
252	0x3b4020c0	0.0029316396
253	0x3e197794	0.14987022
254	0x3df9ebcc	0.12203178
255	0xbe19c066	-0.150148

sequential/dense_2/MatMul f4 [100, 100]
0	0xbd90e9cc	-0.07075843
1	0xbd92399a	-0.07139893
2	0xbdd6665a	-0.10468741
3	0xbe1e946c	-0.15486306
4	0x3d4994bd	0.049214114
5	0x3dff2861	0.124588735
6	0xbaf4a99a	-0.0018666268
7	0x3c8ab2e3	0.016931003
8	0x3c871cf8	0.016493306
9	0xbdf480c3	-0.11938622
10	0x3dcbe368	0.09955484
11	0x3d9b6a10	0.07588589
12	0x3e2b8ad9	0.16752185
13	0x3dcd95c4	0.10038331
14	0xbdd8111d	-0.10550139
15	0xbe056319	-0.13026084
16	0x3e32adf3	0.17449169
17	0xbe28b9aa	-0.16477075
18	0x3ddc76aa	0.10764821
19	0x3dc82306	0.09772305
20	0x3dfbf958	0.12303418
21	0xbe124c14	-0.14286834
22	0xbda683a6	-0.08130579
23	0x3cae63d3	0.021287834
24	0x3e0e8b97	0.13920437
25	0xbd26d543	-0.040730726
26	0x3e17c1c4	0.1482001
27	0x3daf6bd3	0.08565488
28	0x3dcaed39	0.09908528
29	0x3e04048c	0.1289236
30	0xbe030bed	-0.12797518
31	0xbe0bec5d	-0.13664384
32	0xbce887b4	-0.02838502
33	0xbd194dde	-0.037427776
34	0x3d3c953a	0.04604075
35	0xbd3bebe9	-0.04587928
36	0xbdd10322	-0.10205676
37	0xbe07f101	-0.1327553
38	0x3d5c7bf6	0.053829156
39	0x3ddf0dfd	0.1089134
40	0x3dbbb058	0.09164494
41	0xbe02c635	-0.12770922
42	0xbc8459a2	-0.016156022
43	0xbe282815	-0.1642154
44	0x3dadff86	0.08496003
45	0x3b9c76fd	0.0047749267
46	0xbe2d1a65	-0.169046
47	0xbdd1d20c	-0.102451414
48	0x3ceb505e	0.028724845
49	0x3d60de90	0.054899752
50	0x3e9f4b02	0.31111914
51	0xbe28e98b	-0.1649534
52	0xbe033aef	-0.1281545
53	0xbd426435	-0.047458846
54	0xbda3d887	-0.08000284
55	0x3d494cef	0.049145635
56	0xbd61c04c	-0.05511503
57	0xbc992a21	-0.018696846
58	0x3e05bc2d	0.13060065
59	0x3cf80469	0.03027554
60	0x3dc2638f	0.094916455
61	0x3e1dddbb	0.15416615
62	0x3e021de9	0.12706722
63	0x3cec823b	0.028870692
64	0x3e02e0a1	0.12781002
65	0x3e209cfa	0.15684882
66	0x3d1d1c1a	0.038356878
67	0xbe0330e0	-0.12811613
68	0xbe24e698	-0.1610359
69	0x3e227e7a	0.1586856
70	0xbd920634	-0.071300894
71	0xbaee4b23	-0.0018180351
72	0x3ca0a903	0.019611841
73	0x3e14a65c	0.14516586
74	0x3df2aa71	0.11848915
75	0x3b6b4a2a	0.003590236
76	0x3de0c3e2	0.10974862
77	0x3d80dc08	0.06291968
78	0x3dd4a452	0.10382904
79	0xbb9b1abb	-0.004733411
80	0x3d5e5966	0.054284476
81	0x3de27162	0.11056782
82	0x3cc7b88e	0.024379995
83	0x3dbd9b28	0.09258109
84	0xbe2480cc	-0.16064757
85	0x3dfec873	0.124405764
86	0x3de7e2dc	0.11322567
87	0x3c742f17	0.014903805
88	0x3e0b5f90	0.13610673
89	0x3dc17856	0.094467804
90	0xbd681f00	-0.05667019
91	0xbd1e24b4	-0.03860922
92	0x3e0df39d	0.13862462
93	0xbbe2beb3	-0.006919706
94	0xbe1cd951	-0.15317275
95	0xbe15e98a	-0.1463987
96	0x3e00b89a	0.1257042
97	0x3e035a1c	0.12827343
98	0xbb6b7327	-0.003592679
99	0xbe25886c	-0.16165322
100	0x3c273159	0.0102046365
101	0xbdcda8b4	-0.10041943
102	0x3d1fd260	0.03901899
103	0x3e08bfd8	0.13354433
104	0xbe0aa01a	-0.13537636
105	0x3d8d9d34	0.0691475
106	0xbe1b5368	-0.15168536
107	0x3c81be1f	0.015837727
108	0x3d7d00e1	0.061768416
109	0xbd46d299	-0.048540685
110	0xbd00a970	-0.03141159
111	0x3dd53901	0.10411263
112	0xbcbba2ed	-0.022904838
113	0x3e1f713a	0.15570536
114	0xbca4167e	-0.020030256
115	0x3dbf9a6b	0.09355625
116	0x3e43b468	0.19111788
117	0xbe1ec0b3	-0.15503196
118	0x3e1b408c	0.15161341
119	0xbdd76625	-0.105175294
120	0xbde67794	-0.112532765
121	0x3dc144b7	0.094369344
122	0xbe1d241e	-0.15345809
123	0xbd1dbbcf	-0.038509186
124	0xbd9a1c8e	-0.075249776
125	0x3b0f01d0	0.0021821149
126	0x3d49a77d	0.049231995
127	0x3db0aebb	0.08627077
128	0xbe288db4	-0.16460305
129	0x3e2162a9	0.15760292
130	0x3c8b9203	0.017037397
131	0xbd96fbe3	-0.07372262
132	0xbe01c9c7	-0.12674628
133	0xbd9e7678	-0.0773744
134	0xbd34de43	-0.044157278
135	0xbbc8baf2	-0.0061258012
136	0xbd4259d9	-0.047448967
137	0x3dc24af2	0.09486951
138	0x3d2c3c18	0.042049497
139	0xbe2ad155	-0.16681416
140	0x3d1e0390	0.038577616
141	0x3df214e5	0.118203916
142	0xbd5d5d71	-0.05404419
143	0xbd7d1dac	-0.061795875
144	0xbc3a3a3f	-0.011366426
145	0x3df54875	0.11976711
146	0x3dddfd74	0.10839358
147	0x3ded63e6	0.1159132
148	0x3e1461ea	0.14490476
149	0xbe2bcf3f	-0.16778277
150	0xbe019d64	-0.12657696
151	0xbdc2d082	-0.09512426
152	0x3d3721b4	0.044709876
153	0xbdcd7905	-0.10032848
154	0xbda75edb	-0.08172389
155	0x3e191c51	0.14952208
156	0xbd697a1b	-0.057001214
157	0x3e29e383	0.16590695
158	0x3e22917a	0.15875807
159	0x3de3eb66	0.11128883
160	0xbd641f19	-0.05569372
161	0xbde4db6d	-0.11174665
162	0xbd8b5339	-0.06802983
163	0x3d8b47b2	0.06800784
164	0xbe077a9a	-0.13230363
165	0x3d661495	0.056171972
166	0x3bf8bd07	0.007590893
167	0xbc6b7162	-0.014370294
168	0x3e103830	0.14083934
169	0x3e0c897f	0.13724326
170	0x3dffb178	0.12485021
171	0xbd9023e5	-0.07038096
172	0x3ded3018	0.11581439
173	0x3d8d4acc	0.06899032
174	0xbca0c31e	-0.01962429
175	0xbd6e3971	-0.05816025
176	0xbd4509b9	-0.048104975
177	0xbdd3f733	-0.10349884
178	0x3ddf74a7	0.109109215
179	0x3e12b3b2	0.14326361
180	0xbe16b57a	-0.14717665
181	0xbcb87932	-0.022518728
182	0x3e0632c9	0.1310531
183	0xbd32db1a	-0.043665983
184	0xbd2c8021	-0.04211438
185	0x3e06d0a6	0.1316553
186	0xbe0aa710	-0.13540292
187	0x3e105142	0.14093497
188	0x3dc434d7	0.09580391
189	0xbdc8b713	-0.09800544
190	0xbd932df1	-0.07186497
191	0x3c9f0fd7	0.019416733
192	0xbe20ebac	-0.15714902
193	0xbd089704	-0.033347145
194	0xbc996627	-0.018725468
195	0x3cc70450	0.024294049
196	0x3cb260d1	0.021774681
197	0x3d9aa0c5	0.075501956
198	0xbd0853da	-0.033283092
199	0x3d859b09	0.06523711
200	0xbd1694da	-0.03676305
201	0x3db41b19	0.08794231
202	0x3ddf2a48	0.108967364
203	0xbe314fd8	-0.17315614
204	0x3dd94b50	0.10610068
205	0xbd494eb4	-0.049147323
206	0x3da716a4	0.08158615
207	0x3dcac014	0.09899917
208	0xbe29a46c	-0.16566628
209	0xbd3521ae	-0.044221573
210	0xbe21f30a	-0.15815368
211	0xbe26231f	-0.16224335
212	0xbd123cc4	-0.035702482
213	0xba847700	-0.0010106266
214	0xbdacdf39	-0.08441014
215	0x3dff386d	0.12461934
216	0xbe26b411	-0.16279627
217	0xbd4503e4	-0.048099414
218	0x3d112036	0.03543111
219	0xbbfd8600	-0.0077369213
220	0x3e1849d8	0.14871919
221	0xbe0fb121	-0.14032413
222	0xbda30f49	-0.079619
223	0x3dca00ac	0.098634094
224	0x3e236476	0.15956292
225	0x3cce3f80	0.025176764
226	0x3e0d9c9a	0.1382927
227	0x3d1fdaf4	0.03902717
228	0xbe2bb4af	-0.16768144
229	0x3b2301e2	0.0024872948
230	0xbe17a474	-0.14808828
231	0xbd05c190	-0.0326553
232	0xbe30d088	-0.17267048
233	0xbdd5c71c	-0.10438368
234	0x3e2b33c6	0.16718969
235	0xbe06f123	-0.13177924
236	0x3c800798	0.015628621
237	0xbe380854	-0.17971927
238	0x3d4389b4	0.047738746
239	0xbc66d712	-0.014089363
240	0xbd3cbd40	-0.04607892
241	0xbae36300	-0.001734823
242	0x3d8f0e4e	0.0698515
243	0xbd1a4ff6	-0.037673913
244	0x3daeb39c	0.085303515
245	0x3d6249a8	0.055246025
246	0x3e13442d	0.14381476
247	0xbd9af49e	-0.07566188
248	0xbdbe7744	-0.09300092
249	0xbd0856b7	-0.033285823
250	0xbe1a33a5	-0.15058763
251	0x3d7e0699	0.06201801
252	0x3dceb8bc	0.10093829
253	0xbd1cd4d0	-0.03828889
254	0x3d90292a	0.070391014
255	0xbd448228	-0.04797569

sequential/dense_3/MatMul f4 [2, 100]
0	0x3e3530c3	0.17694382
1	0xbd130544	-0.035893694
2	0xbd91995b	-0.07109328
3	0xbd10f494	-0.035389498
4	0xbdfffd49	-0.12499482
5	0x3e05dce7	0.13072549
6	0xbd1fb059	-0.038986538
7	0xbdf7af27	-0.120939545
8	0xbdcaed7e	-0.09908579
9	0xbe4777b6	-0.1947926
10	0x3d2cdd8c	0.04220347
11	0x3d4e7e41	0.050413374
12	0x3e0d0749	0.1377231
13	0x3e2c48ab	0.16824596
14	0xbc1c387f	-0.009534954
15	0xbce1d91c	-0.027569346
16	0x3d7faa3b	0.062418204
17	0x3d9f37d5	0.07774321
18	0x3ddd13fb	0.107948266
19	0xbd15399c	-0.036431894
20	0x3d9c9b12	0.07646765
21	0x3d790de0	0.060804248
22	0x3da91ec6	0.08257823
23	0xbe0e443c	-0.13893217
24	0xbe228a56	-0.15873083
25	0xbe2ed53f	-0.17073534
26	0x3bb30c77	0.0054641324
27	0xbbc50137	-0.0060121077
28	0x3d36b3e7	0.044605162
29	0x3e5db164	0.216497
30	0xbcde7bbe	-0.027158614
31	0xbd8587be	-0.065200314
32	0xbe373015	-0.17889436
33	0xbe142d25	-0.14470346
34	0xbe3af928	-0.18259108
35	0x3e4d3387	0.20039187
36	0xbe1e821e	-0.15479323
37	0xbd32da65	-0.04366531
38	0xbe6cb454	-0.23115665
39	0x3e53a496	0.20668253
40	0xbdae50b2	-0.08511485
41	0x3b094e6f	0.002095129
42	0xbe1b7b2a	-0.15183702
43	0xbd4e5bba	-0.050380446
44	0x3e36cd0f	0.17851661
45	0x3e614e51	0.22002532
46	0x3c819bd0	0.015821368
47	0x3db396f7	0.08769029
48	0xbe27ca70	-0.16385818
49	0x3e17b051	0.14813353
50	0x3da2b2d3	0.07944264
51	0xbd167221	-0.036729936
52	0x3d8e3d4b	0.069452845
53	0x3e616adb	0.22013418
54	0x3e631c1d	0.22178693
55	0x3e3ef91e	0.18649718
56	0xbd9237b1	-0.071395285
57	0xbc2fbc7b	-0.01072609
58	0xba876ed3	-0.0010332711
59	0x3d792267	0.060823824
60	0x3d5c624c	0.05380468
61	0x3e44826b	0.19190376
62	0x3da40700	0.08009148
63	0xbe361a8b	-0.17783563
64	0xbd1a3fd1	-0.037658516
65	0x3e4d023c	0.20020384
66	0x3e00ffde	0.12597606
67	0x3c83be24	0.016081877
68	0x3e1d48f9	0.15359868
69	0x3e76046c	0.24025124
70	0x3c998444	0.018739827
71	0x3e37ea74	0.1796053
72	0x3e2681ff	0.16260527
73	0x3c1e1b25	0.009650026
74	0x3e07ed67	0.13274156
75	0xba9515a0	-0.0011374243
76	0x3cb6b129	0.022301273
77	0x3e2f4e2b	0.17119662
78	0xbd3de1a1	-0.046357755
79	0x3d6bb1e8	0.05754271
80	0x3e678034	0.226075
81	0x3d7be0bc	0.06149362
82	0x3dd6f99a	0.104968265
83	0xbe3c60aa	-0.1839625
84	0xbe0e3699	-0.13888015
85	0x3db5ab5c	0.08870575
86	0x3e6a6634	0.2289055
87	0xbd8aa46d	-0.06769643
88	0xbe2ce056	-0.16882452
89	0xbe4bd393	-0.19904928
90	0xbd1d2ae5	-0.038370986
91	0xbd0ded2b	-0.03465001
92	0x3e2f37a8	0.17111075
93	0xbdd6fe51	-0.10497726
94	0xbc05be32	-0.008163022
95	0x3d70e1e3	0.058809172
96	0x3dab9b0d	0.08379183
97	0x3d3b6f98	0.04576072
98	0xbe43c30a	-0.1911737
99	0xbde31181	-0.11087323
100	0xbd5fc679	-0.054632638
101	0xbd95af3b	-0.07308813
102	0xbe6ea4b3	-0.23305015
103	0x3e8378f5	0.2567822
104	0x3dea6f27	0.11446982
105	0xba904b25	-0.0011008723
106	0x3e1908e7	0.14944802
107	0x3d84282f	0.06452977
108	0xbd97797a	-0.07396217
109	0xbbe27b78	-0.0069116913
110	0xbe81961d	-0.2530984
111	0x3e66cff1	0.22540261
112	0xbe285e9a	-0.16442338
113	0xbe4470d0	-0.1918366
114	0xbe370f95	-0.17877038
115	0x3e7686bf	0.24074839
116	0x3cc77ae4	0.024350591
117	0xbd326d7b	-0.04356144
118	0x3e207225	0.15668543
119	0xbe5900a2	-0.21191648
120	0xbe298973	-0.16556339
121	0x3e35e898	0.17764509
122	0x3d9a37ac	0.0753015
123	0xbe4151f5	-0.1887892
124	0x3dd7fbc0	0.105460644
125	0x3e3f8ef7	0.1870688
126	0xbe205ecc	-0.15661162
127	0x3c0274dd	0.007962433
128	0x3e3c396a	0.18381277
129	0xbde8e5a3	-0.11371925
130	0x3df8ce34	0.12148705
131	0x3e38da24	0.18051964
132	0xbe4a8fe8	-0.19781458
133	0xbe1525be	-0.14565179
134	0x3e352a7c	0.17691988
135	0x3d9c6103	0.07635691
136	0xbe4fcddb	-0.20293371
137	0xbe23f613	-0.16011839
138	0xbd1870a4	-0.037216797
139	0x3d50ec09	0.05100635
140	0x3e103db2	0.14086035
141	0x3e350aed	0.17679949
142	0xbdbd9338	-0.092565954
143	0xbe35dc77	-0.17759882
144	0xbcaca63c	-0.02107536
145	0xbe0adb01	-0.13560106
146	0xbe1d59ae	-0.15366241
147	0xbd559f13	-0.052153658
148	0xbd8bdc6b	-0.06829151
149	0xbe6ad818	-0.22933996
150	0x3e2ae43f	0.16688631
151	0x3cb369e6	0.021901082
152	0x3cc9d3d1	0.024637135
153	0x3e1732d2	0.1476548
154	0xbd4f7d35	-0.050656516
155	0xbb025c19	-0.001989132
156	0x3e59384b	0.2121288
157	0x3b986779	0.004651007
158	0x3dda6560	0.10663867
159	0xbe3d6338	-0.1849488
160	0x3dbb9853	0.09159913
161	0x3d8fb856	0.07017581
162	0xbe5fb668	-0.21846926
163	0xbe0fe6e3	-0.1405292
164	0xbd8831c5	-0.06650118
165	0x3e774ebe	0.24151132
166	0xbe592b84	-0.21208006
167	0xbde75ad0	-0.11296618
168	0xbe5a4cd9	-0.21318378
169	0x3ad63342	0.001634218
170	0xbe311d3f	-0.17296313
171	0x3e53a267	0.2066742
172	0xbe0e586a	-0.13900915
173	0x3db5f9f6	0.08885567
174	0xbe594150	-0.21216321
175	0xbca97377	-0.02068494
176	0x3e1d0720	0.15334749
177	0xbe4c16e7	-0.19930612
178	0xbe01a117	-0.12659107
179	0x3dd0a360	0.10187411
180	0x3c54ec89	0.0129958475
181	0x3e60ed29	0.2196547
182	0x3db8bd8d	0.09020529
183	0xbc41adc8	-0.011821218
184	0xbe369e55	-0.17833836
185	0xbde86c15	-0.1134874
186	0x3be3fcbc	0.0069576185
187	0x3e002842	0.12515357
188	0xbe0ffac5	-0.14060505
189	0x3e30f954	0.17282611
190	0xbe09ab8d	-0.13444348
191	0xbe64f1e6	-0.22357902
192	0xbdf5e805	-0.12007145
193	0xbca2eceb	-0.019888362
194	0x3e0ebdb9	0.13939561
195	0x3e698cb0	0.22807574
196	0xbe01ab36	-0.12662968
197	0xbcd51efc	-0.026015751
198	0x3e0e6e34	0.13909227
199	0xbdffe3c7	-0.12494617
